lab2/weights/best.pt (torch, 79011 bytes, 17 tensors)

conv1.weight f4 [16, 1, 1, 51]
0	0xbcbc3e11	-0.022978814
1	0xbd543545	-0.051808614
2	0xbda39185	-0.0798674
3	0xbd31047e	-0.043217175
4	0x3b9d9e28	0.0048101135
5	0x3bd60bc0	0.0065321624
6	0x3c310adc	0.010805812
7	0x3cda2b62	0.026632015
8	0xbc9cc7ec	-0.019138299
9	0xbdaec7ea	-0.08534224
10	0xbb2bb062	-0.0026197662
11	0x3d67fb11	0.05663592
12	0x3da328cf	0.07966768
13	0x3c517dc8	0.012786336
14	0xbd210494	-0.039311007
15	0xbdcb0c28	-0.09914428
16	0xbd1892aa	-0.037249245
17	0x3d8f753e	0.07004784
18	0x3d497331	0.04918212
19	0x3c572943	0.013132396
20	0xbd8ac327	-0.067755036
21	0xbdea7900	-0.1144886
22	0xbbaa0110	-0.005188115
23	0x3db2ab07	0.08724027
24	0x3dc2f1ad	0.09518752
25	0x3cbd262e	0.023089495
26	0xbdcc447c	-0.09974
27	0xbdb2ea66	-0.08736114
28	0xbc64e953	-0.013971644
29	0x3d739419	0.05946741
30	0x3d2567b5	0.040382106
31	0x3bc8692d	0.0061160536
32	0xbd8828ef	-0.066484325
33	0xbc91ca75	-0.017796734
34	0xbd66d184	-0.056352153
35	0x3cfe1ebb	0.031020513
36	0x3d87408a	0.06604107
37	0x3c80858a	0.015688676
38	0xbd5bb8bc	-0.053642973
39	0xbadcc51d	-0.0016843412
40	0xbcc7aeb5	-0.024375299
41	0x3c541318	0.012944005
42	0x3d7697c4	0.06020333
43	0x3b0adfdd	0.0021190562
44	0xbc396b5b	-0.011317099
45	0xbcf949c8	-0.03043069
46	0xbdc6505f	-0.09683298
47	0x3c7202ec	0.014771204
48	0x3cd3dc20	0.0258618
49	0x3d051035	0.03248616
50	0xbd85a045	-0.065247096
51	0x3e33cd7c	0.17558855
52	0x3cde9f0e	0.027175453
53	0xbc1b3b29	-0.009474554
54	0xbb635648	-0.0034688879
55	0xbd120868	-0.035652548
56	0xbdafd5b6	-0.08585684
57	0xbddc060b	-0.1074334
58	0xbd5383ff	-0.051639553
59	0xbce8e8ee	-0.028431382
60	0x3dc9acc5	0.09847406
61	0x3d94bf9a	0.072631076
62	0x3d64f9cd	0.05590229
63	0xbccb844c	-0.024843358
64	0x3d8ebdc1	0.069697864
65	0x3cad610a	0.021164436
66	0xbdec329a	-0.11533089
67	0xbd121bbf	-0.035670992
68	0xbddb7368	-0.10715371
69	0xbc1ab00f	-0.00944139
70	0xbcd9fe85	-0.026610622
71	0x3d360248	0.04443577
72	0x3d70ec01	0.05881882
73	0x3d207a07	0.039178874
74	0x3dea708f	0.1144725
75	0x3d3546c2	0.044256933
76	0xba2ded69	-0.0006634803
77	0xbd957154	-0.07297006
78	0xbdd86887	-0.10566812
79	0xbd70a7f5	-0.058753926
80	0xbc605656	-0.013692459
81	0x3cbeed5c	0.023306541
82	0xbb9ee08f	-0.004848547
83	0x3d42f34c	0.047595307
84	0x3d48e793	0.04904897
85	0x3dba0d3c	0.090845555
86	0xbbaba02b	-0.0052375994
87	0x3d1508fd	0.036385525
88	0xbd91669a	-0.07099648
89	0xbd9e887b	-0.07740875
90	0xbd4e1c53	-0.05031998
91	0xbd3f8139	-0.046754096
92	0x3ad6f82e	0.0016400868
93	0x3b24f11b	0.0025168124
94	0x3da15b5f	0.07878756
95	0x3ddc8f21	0.10769487
96	0x3d8792d8	0.06619805
97	0xbc39a915	-0.011331816
98	0x3cf5211f	0.02992302
99	0xbb0f2d07	-0.0021846907
100	0xbda05ef5	-0.078306116
101	0xbdda954f	-0.106730096
102	0x3d3fa285	0.04678585
103	0xbce50725	-0.027957508
104	0x3d7ad240	0.061235666
105	0xbd0a7455	-0.03380235
106	0xbd0466a7	-0.03232446
107	0x3d03921d	0.032121766
108	0x3ccf2302	0.025285248
109	0x3d8e72e8	0.069555104
110	0xbda96e56	-0.08272998
111	0x3c1b9318	0.009495519
112	0xbcd87707	-0.026423944
113	0x3d77f68a	0.060537852
114	0x3d186676	0.03720709
115	0xbd91282c	-0.0708774
116	0x3c226122	0.009910854
117	0xbd8f4f84	-0.06997588
118	0x3dcdab8d	0.10042486
119	0xbc62ccca	-0.013842771
120	0x3d74c055	0.059753735
121	0xbe03c778	-0.1286906
122	0x3bc6c55e	0.0060660085
123	0x3d91edbb	0.071254216
124	0x3d1927f4	0.037391618
125	0xbc22b359	-0.009930455
126	0xbda692ac	-0.08133444
127	0xbc37eb24	-0.0112254955
128	0xbc9b88ec	-0.018986188
129	0x3e292067	0.16516267
130	0x3c075cfa	0.008261913
131	0xbe40c9ad	-0.18826933
132	0x3ca9ee97	0.020743651
133	0x3d0c2137	0.034211364
134	0x3e55725f	0.2084441
135	0xbdbf2c8c	-0.093346685
136	0xbe44d342	-0.19221213
137	0x3c29d37c	0.010365363
138	0x3e28aa97	0.16471325
139	0x3d823ac2	0.063588634
140	0xbc5eb487	-0.013592846
141	0xbe2dcdbb	-0.16973011
142	0xbd5d1cba	-0.053982474
143	0x3e5e416f	0.21704648
144	0x3d9ca932	0.07649459
145	0xbe0c3a24	-0.13694054
146	0xbdcf53a3	-0.10123374
147	0xbb81ce8e	-0.003961391
148	0x3e3d0159	0.18457545
149	0xbced18b9	-0.028942453
150	0xbd95e7ab	-0.07319578
151	0x3c098fa8	0.008396067
152	0x3d2329f2	0.039834924
153	0x3da6fb57	0.08153408
154	0x3d145afd	0.036219586
155	0x3d0b873c	0.034064516
156	0xbc80e464	-0.015733905
157	0x3cd59e03	0.026076322
158	0x3d0267ac	0.03183715
159	0x3c35be3e	0.011092721
160	0x3d5c7910	0.05382639
161	0x3dc00e25	0.09377698
162	0x3d675fe7	0.056487944
163	0x3d07257b	0.03299473
164	0x3d8223e2	0.063545
165	0xbaf73983	-0.0018861744
166	0x3bab5f69	0.0052298796
167	0xbd54bf08	-0.051939994
168	0xbd84e730	-0.06489408
169	0xbccef77b	-0.025264492
170	0xbd7bf917	-0.061516847
171	0x3928e5d9	0.00016107353
172	0xbcef6fd4	-0.029228128
173	0x39e59ace	0.00043793622
174	0x3d69dffc	0.057098374
175	0x3caa02d3	0.0207533
176	0x3cd308c9	0.025761025
177	0x3d655017	0.055984583
178	0x3d09223c	0.033479914
179	0xbb1d62cf	-0.0024015193
180	0x3d00aada	0.031412937
181	0x3ba4c95d	0.005028887
182	0x3c6fde8e	0.0146404635
183	0x3c22a201	0.00992632
184	0xbd16bf63	-0.036803614
185	0xbbfc5f45	-0.0077017867
186	0x3cac045a	0.020998169
187	0xbd203d3e	-0.039120905
188	0xbd1cbcf5	-0.03826614
189	0x3d6749b7	0.056466784
190	0x3b349c8b	0.0027559127
191	0x3cb088c3	0.021549588
192	0xbd2ab60f	-0.04167753
193	0xbd333510	-0.043751776
194	0xbc4e17c3	-0.012578907
195	0xbd034abc	-0.032053694
196	0xbd501c7e	-0.050808422
197	0xbc2ffef3	-0.010741937
198	0xbcab3412	-0.020898852
199	0x3d588ed7	0.052870598
200	0x3d7a3235	0.061083037
201	0x3ced95af	0.029002039
202	0x3dd55f4c	0.10418567
203	0x3dfeaf93	0.12435832
204	0xbcf682ee	-0.030091729
205	0xbdb84384	-0.089972526
206	0x3d82c936	0.06386034
207	0x3d09e91e	0.033669583
208	0x3ca0252c	0.019548975
209	0x3cc47339	0.023980724
210	0x3de55905	0.1119862
211	0x3dd5d3d1	0.104407914
212	0xbd085269	-0.033281717
213	0x3b688078	0.0035476964
214	0xbcfdeadf	-0.030995784
215	0xbd1f88cd	-0.038948823
216	0xbd91cea1	-0.071194895
217	0xbdd5dd61	-0.10442615
218	0xbdcc010b	-0.099611364
219	0xbd66a93f	-0.05631375
220	0xbd0b16ae	-0.033957176
221	0xbd73e246	-0.059541963
222	0x3c8938fd	0.016750807
223	0xbd86a776	-0.065749094
224	0x3d246b8e	0.040141635
225	0x3d308cb8	0.04310295
226	0x3c9326af	0.017962782
227	0xbc5e8d22	-0.013583453
228	0x3d67018c	0.05639796
229	0x3c597f55	0.013274987
230	0x39df956c	0.00042645202
231	0x3da92862	0.082596555
232	0xbbc80f7d	-0.006105362
233	0x3d8b9889	0.06816203
234	0x3d0fed92	0.035138674
235	0x3d82d614	0.063884884
236	0xbd288383	-0.041141044
237	0x3d2df91a	0.04247389
238	0xbbb6b356	-0.0055755777
239	0xbcd5a7c4	-0.026080973
240	0xbd2c6505	-0.042088527
241	0xbd914cb0	-0.07094705
242	0xbd826398	-0.06366652
243	0xbdadb622	-0.08482005
244	0xbc51e50b	-0.012810956
245	0xbc54d55c	-0.012990322
246	0xbd3ac2ce	-0.045595936
247	0xbc561741	-0.013067068
248	0x3d88623e	0.06659363
249	0x3d860248	0.06543404
250	0x3db8d1e0	0.090244055
251	0xbbfd1c43	-0.0077243163
252	0x3d08166d	0.033224512
253	0xbc1141a2	-0.008865746
254	0xbd983f70	-0.07433975
255	0xbd505823	-0.050865304

batchnorm1.weight f4 [16]
0	0x3d28abe9	0.04117957
1	0x3e02c0dd	0.12768884
2	0x3da016a0	0.078168154
3	0x3d899ecb	0.067197405
4	0x3d90ca0b	0.07069787
5	0x3dea5030	0.11441076
6	0x3def93fb	0.11698147
7	0x3dea2615	0.11433045
8	0x3d0d5d2d	0.034512687
9	0x3de72886	0.11287026
10	0x3dc1d3a2	0.09464194
11	0x3d9a229d	0.07526133
12	0x3da9cab1	0.082906134
13	0x3d9aadbd	0.07552669
14	0x3d630d30	0.0554325
15	0x3d51687f	0.051125046

batchnorm1.bias f4 [16]
0	0x37777552	1.4749663e-05
1	0xb8842ce4	-6.302612e-05
2	0xb8cb2579	-9.686774e-05
3	0xb6c752c4	-5.9402973e-06
4	0xb6c5bf60	-5.8933365e-06
5	0xb87e7a62	-6.0672297e-05
6	0xb885a987	-6.373511e-05
7	0x37244864	9.7920165e-06
8	0xb827dfc2	-4.0024293e-05
9	0x377a0820	1.4903053e-05
10	0x36c9af98	6.0107086e-06
11	0x381528fb	3.5562534e-05
12	0xb8761608	-5.867149e-05
13	0xb82dcd2b	-4.143749e-05
14	0xb8a87403	-8.032473e-05
15	0xb7096694	-8.18972e-06

batchnorm1.running_mean f4 [16]
0	0x3c8fad19	0.017538594
1	0x3b865185	0.0040990734
2	0xbb94a448	-0.0045361854
3	0xbd0225af	-0.03177422
4	0x3bc4b66f	0.006003193
5	0x397a6832	0.00023880674
6	0x392ab279	0.0001627895
7	0x3964dc77	0.00021825904
8	0xbcd26c19	-0.02568631
9	0xbc810130	-0.015747637
10	0x3aaeeb67	0.0013345302
11	0xbc84a98a	-0.016194124
12	0x3b27d386	0.0025608256
13	0x3c76d3e3	0.015065166
14	0x3c7fa34c	0.015602898
15	0x3d163a9f	0.036677

batchnorm1.running_var f4 [16]
0	0x4092c828	4.586933
1	0x415e3964	13.889011
2	0x4014d3fb	2.3254383
3	0x413ab3fd	11.668942
4	0x41176d78	9.464226
5	0x40316108	2.7715473
6	0x400d7265	2.210107
7	0x400466e6	2.0687804
8	0x412101e0	10.062958
9	0x4124f7c7	10.3104925
10	0x40a8ab53	5.2709136
11	0x4134623b	11.273982
12	0x414eef83	12.933475
13	0x413011ac	11.004314
14	0x41817499	16.181932
15	0x41428fc7	12.160102

conv2.weight f4 [32, 1, 2, 1]
0	0xbd43845d	-0.047733653
1	0x3e15cafb	0.14628212
2	0x3e9d2969	0.30695656
3	0xbe2c3d2d	-0.16820212
4	0xbe9e0dbd	-0.30869856
5	0x3e312a65	0.17301328
6	0xbdb45aef	-0.08806407
7	0x3d402290	0.04690796
8	0xbe39cad9	-0.18143786
9	0x3c979c77	0.018507225
10	0x3c936411	0.017992051
11	0xbe380dfb	-0.17974083
12	0xbd063601	-0.032766346
13	0xbdcff94c	-0.101549715
14	0x3c0f3481	0.008740545
15	0xbdd748e0	-0.10511947
16	0xbdd719eb	-0.1050299
17	0xbd180d0c	-0.037121817
18	0xbde95e51	-0.113949426
19	0xbb0ecafa	-0.0021788464
20	0x3e01ab85	0.12663086
21	0xbc860ede	-0.016364511
22	0xbd0db2f9	-0.03459451
23	0x3ddbb94d	0.10728703
24	0xbdfadb24	-0.12248829
25	0x3c909dda	0.017653394
26	0xbdf68eae	-0.12038933
27	0x3c129326	0.008946216
28	0x3ca34c0d	0.019933725
29	0xbe0cfbc9	-0.13767923
30	0x3e6ab957	0.22922264
31	0xbdbbaa46	-0.091633365
32	0x3e44623e	0.19178101
33	0x3e42c4e0	0.19020414
34	0x3eaaf0aa	0.33386737
35	0xbeebc672	-0.4604984
36	0x3dce0961	0.10060383
37	0xbd4f5504	-0.050618187
38	0xbe4c9535	-0.19978793
39	0x3e34094d	0.17581673
40	0xbc9d2677	-0.01918338
41	0x3e12f587	0.14351474
42	0xbdd800a6	-0.10546999
43	0x3eb7caf9	0.35897043
44	0xbd8cd091	-0.068757184
45	0x3e1b8707	0.15188228
46	0x3da96ed2	0.082730904
47	0xbe3997c2	-0.18124297
48	0x3e96ee43	0.29478654
49	0xbe87a8db	-0.26496014
50	0x3c04d635	0.008107712
51	0x3dde8a23	0.10866191
52	0xbe35d33c	-0.17756361
53	0x3e07ce10	0.132622
54	0x3d16c098	0.036804765
55	0x3dc00ff8	0.09378046
56	0xbda82b4f	-0.082113855
57	0xbd28ae74	-0.041181996
58	0xbe8fbe04	-0.28074658
59	0x3e74af20	0.2389493
60	0xbde4ec35	-0.111778654
61	0x3c84de31	0.01621923
62	0x3ca3556c	0.019938193
63	0xbdd4bc72	-0.103875056

batchnorm2.weight f4 [32]
0	0x3ec016be	0.3751735
1	0x3ea20dc0	0.31651115
2	0x3f0ceb73	0.55046767
3	0x3f0a0ddd	0.53927404
4	0x3f202c64	0.62567735
5	0x3f47d881	0.78064734
6	0x3e6e54f5	0.23274596
7	0x3e661d23	0.22472052
8	0x3e8b2add	0.2718114
9	0x3ea90aa9	0.33015946
10	0x3f12366b	0.57114285
11	0x3f259984	0.6468737
12	0x3ee43569	0.44572
13	0x3eeabbaf	0.45846316
14	0x3edf7ef1	0.43651536
15	0x3ed4e6d7	0.41582367
16	0x3edcf11d	0.43152705
17	0x3eae88d7	0.34088776
18	0x3ec003a9	0.37502792
19	0x3ec6ed5a	0.3885296
20	0x3ef9a5db	0.4875935
21	0x3f01a1aa	0.50637305
22	0x3ea4d175	0.32191053
23	0x3e9c763e	0.30558962
24	0x3ed12b10	0.40853167
25	0x3e990d73	0.29893073
26	0x3e9bd158	0.30433154
27	0x3e8fd5a2	0.28092676
28	0x3eaa8869	0.33307198
29	0x3eeb3226	0.45936698
30	0x3ecc7272	0.39931065
31	0x3eb3d9ee	0.35127205

batchnorm2.bias f4 [32]
0	0xbdbc5185	-0.09195236
1	0xbd4d6e36	-0.050153933
2	0xbea2bba6	-0.3178379
3	0xbea33a88	-0.31880593
4	0xbeafe160	-0.34351635
5	0xbeb8859d	-0.3603944
6	0x3c964ded	0.018347705
7	0xbc349945	-0.01102287
8	0xbdcc6c9a	-0.099816516
9	0xbe0b9035	-0.1362923
10	0xbeaba98c	-0.33527792
11	0xbec80f71	-0.3907428
12	0xbe69d4e3	-0.22835116
13	0xbe5b99d3	-0.21445398
14	0xbe8b9f6b	-0.27270064
15	0xbe85ecca	-0.26157218
16	0xbea6a9f0	-0.32551527
17	0x3d5fe9d9	0.054666374
18	0xbe2f8436	-0.17140278
19	0xbe213955	-0.15744527
20	0xbe8c260e	-0.27372783
21	0xbe9300a9	-0.2871144
22	0xbe10b797	-0.14132534
23	0xbd975698	-0.07389563
24	0xbe42ce2c	-0.19023961
25	0xbd916f60	-0.07101321
26	0xbdcb8028	-0.09936553
27	0xbcfbc4f1	-0.030733557
28	0xbd98ec29	-0.07466919
29	0xbe3fda45	-0.18735607
30	0xbd7451e7	-0.05964842
31	0xbdc518ad	-0.09623847

batchnorm2.running_mean f4 [32]
0	0x37ea3241	2.7918375e-05
1	0xb88eee6a	-6.815496e-05
2	0x37169717	8.975875e-06
3	0x36262ea8	2.4763085e-06
4	0xb7b3bed4	-2.1427324e-05
5	0x379051d1	1.7204236e-05
6	0x37858004	1.5914447e-05
7	0x37d98d56	2.593423e-05
8	0x362acb20	2.5450208e-06
9	0x369eef7f	4.736648e-06
10	0xb682864d	-3.8899366e-06
11	0x36c1f747	5.780635e-06
12	0x36830d4e	3.905653e-06
13	0x366a9e0b	3.496071e-06
14	0x36fe5beb	7.5804905e-06
15	0x377b0084	1.4960886e-05
16	0xb5878233	-1.0096177e-06
17	0x38f13e76	0.0001150341
18	0x378133f7	1.5402196e-05
19	0xb8208778	-3.8273138e-05
20	0x375030f0	1.240916e-05
21	0x38127a16	3.4922814e-05
22	0xb6aab495	-5.0874173e-06
23	0x36ccb1be	6.1003657e-06
24	0xb764c9be	-1.3636831e-05
25	0x364145a4	2.8799777e-06
26	0xb7a0d46f	-1.9172408e-05
27	0xb658ea07	-3.232273e-06
28	0x360dad53	2.1111525e-06
29	0x3804b427	3.1639032e-05
30	0x37f5587e	2.9247483e-05
31	0xb7fbae17	-3.0002599e-05

batchnorm2.running_var f4 [32]
0	0x37ef2766	2.8509367e-05
1	0x38f7c973	0.00011815401
2	0x3a4b567d	0.0007756723
3	0x388cdbc9	6.7166584e-05
4	0x39414a7b	0.0001843366
5	0x39463ddb	0.00018905794
6	0x388f2da8	6.8272755e-05
7	0x3828e310	4.026579e-05
8	0x38c7cd70	9.527325e-05
9	0x38970632	7.201395e-05
10	0x395a05f4	0.00020792318
11	0x390d5802	0.00013479593
12	0x393817c1	0.00017556456
13	0x393761db	0.00017488694
14	0x396533c3	0.00021858425
15	0x3a15b71d	0.0005711185
16	0x391a1daa	0.00014697635
17	0x393dc946	0.00018099425
18	0x38961be8	7.157755e-05
19	0x39908203	0.00027562687
20	0x392bebb0	0.00016395631
21	0x3a682bc2	0.0008856618
22	0x38a91e74	8.06422e-05
23	0x38e3c5d1	0.0001086105
24	0x3997f48d	0.0002898317
25	0x38abd834	8.1941864e-05
26	0x38be09cd	9.0617315e-05
27	0x38b3180c	8.539864e-05
28	0x38354fa3	4.322793e-05
29	0x39000a80	0.00012210943
30	0x37fc33f4	3.0064934e-05
31	0x37d9551d	2.590805e-05

conv3.weight f4 [32, 32, 1, 15]
0	0xbc291f09	-0.010322341
1	0xbc827b94	-0.015928067
2	0x3ba6f6dc	0.005095346
3	0x3c08b9c7	0.008345074
4	0x3c351dcc	0.011054467
5	0x3be90cbe	0.0071121147
6	0x3bb8b9bd	0.005637376
7	0xbc660ec4	-0.014041606
8	0xbce533bb	-0.027978769
9	0xbc41c9c6	-0.011827892
10	0xbc78ab4a	-0.015177557
11	0xbd001240	-0.031267405
12	0xbd070444	-0.032963052
13	0xbc14668e	-0.009057654
14	0xbbb3c4a2	-0.005486087
15	0x3ca71319	0.020394849
16	0x3c89f38e	0.016839769
17	0xba2abdf5	-0.0006513291
18	0x3c097eeb	0.008392076
19	0x3c9c44d6	0.019075792
20	0x3c05954e	0.008153273
21	0x3b5fb008	0.0034132022
22	0x3c5260ea	0.012840489
23	0x3be62bfe	0.0070242872
24	0xbb548b19	-0.0032431541
25	0x38fb20ce	0.00011974723
26	0xb9a13474	-0.00030747394
27	0xbbf7a1cc	-0.0075571295
28	0xbc11ee26	-0.008906877
29	0x3bc58253	0.0060274987
30	0xbb428fbf	-0.002968773
31	0xbb0eecbb	-0.0021808583
32	0x3b87e767	0.0041474584
33	0x3bf0e54a	0.007351552
34	0xbc869aa0	-0.016431153
35	0xbc4cbc0e	-0.012496008
36	0xbc75c7f4	-0.015001286
37	0xbc8dc497	-0.017305655
38	0xbd28e018	-0.041229337
39	0xbd50630b	-0.050875705
40	0xbd317d79	-0.04333255
41	0xbcc06322	-0.02348477
42	0xbc32b2cf	-0.010906889
43	0xbcb63be4	-0.022245355
44	0xbc95ccae	-0.018286075
45	0xbb4d29e5	-0.0031305489
46	0xbb79b6e2	-0.0038103391
47	0x3bea1f07	0.007144812
48	0x39df65fe	0.00042609865
49	0xbc7569bf	-0.014978825
50	0xbc271c93	-0.010199684
51	0xbc923b86	-0.017850649
52	0xbca6266c	-0.020281993
53	0xbcfa48bd	-0.030552262
54	0xbcf2e7bd	-0.029651517
55	0xbcfa04e6	-0.030519914
56	0xbcaedbca	-0.021345038
57	0xbc377e55	-0.0111995535
58	0xbc3dbf3a	-0.0115812365
59	0xbc369ea8	-0.011146225
60	0x3c952a40	0.018208623
61	0xbc32b2cb	-0.010906885
62	0xbcc24843	-0.023716098
63	0xbc2c1f96	-0.010505578
64	0xba90a32d	-0.0011034958
65	0x3baebc36	0.005332495
66	0x3c8d8f71	0.017280312
67	0x3cfe42a1	0.03103763
68	0x3d144eb4	0.03620787
69	0x3d44d84c	0.04805784
70	0x3d580844	0.052742258
71	0x3d6cff10	0.057860434
72	0x3cd3d536	0.025858503
73	0x3ca1b7d7	0.019740982
74	0x3c56dc60	0.013114065
75	0xbd23f291	-0.04002625
76	0xbcb6006e	-0.022217002
77	0xbccd2c78	-0.025045618
78	0xbcb7ae2e	-0.022421923
79	0xbcf176b7	-0.029475553
80	0xbcfd3876	-0.030910712
81	0xbd3821a2	-0.04495395
82	0xbd3b7ce2	-0.045773394
83	0xbd4eb5f5	-0.050466496
84	0xbd395fe6	-0.04525747
85	0xbd19fcd0	-0.037594616
86	0xbc5b398e	-0.013380421
87	0xbb57ad73	-0.003290978
88	0xbcb0dcbb	-0.021589627
89	0xbc299a12	-0.010351675
90	0xbcb4ff0d	-0.022094274
91	0xbcf71636	-0.030161958
92	0xbc88a079	-0.016678082
93	0xbd1f0033	-0.03881855
94	0xbcc30f87	-0.023811115
95	0xba4ba260	-0.0007768031
96	0xbc8d421c	-0.017243437
97	0xbc5740a2	-0.013137968
98	0xbc692288	-0.014229424
99	0xbc130a47	-0.008974618
100	0xbc18dc99	-0.009329938
101	0x3be00536	0.0068365587
102	0x3c10fdcc	0.008849572
103	0xbba2171e	-0.0049466034
104	0xbbb9a2ab	-0.0056651435
105	0xbcc7791f	-0.024349747
106	0xbc909b31	-0.017652126
107	0xbc75baee	-0.014998181
108	0xbcf7aeec	-0.030234776
109	0xbca817a4	-0.020519085
110	0xbbf71ca0	-0.007541254
111	0xbcc80afd	-0.024419302
112	0xbc5f0cb2	-0.013613867
113	0xbc21b9dc	-0.0098709725
114	0xbcbf64da	-0.02336352
115	0xbc6de980	-0.014521003
116	0xbc559e41	-0.013038219
117	0xbc70f8ec	-0.014707785
118	0xbc643d0f	-0.013930573
119	0xbc2f8e10	-0.010715023
120	0x3c6c6177	0.014427534
121	0x3a8817d9	0.0010383084
122	0x3bcef2ce	0.0063155657
123	0x3bf08309	0.0073398394
124	0x387d4e92	6.0393075e-05
125	0x3a9c3a64	0.0011919257
126	0xbc0d6d1b	-0.00863197
127	0xbc93dcf6	-0.018049698
128	0xbbd6a047	-0.0065498683
129	0xbc592a97	-0.013254783
130	0xbcef6258	-0.029221699
131	0xbcf232fe	-0.02956533
132	0xbcb88212	-0.02252296
133	0xbce784f2	-0.028261635
134	0xbc9cec21	-0.019155564
135	0x3bad31d2	0.00528548
136	0xbbf849b8	-0.0075771473
137	0xbb50343d	-0.0031769418
138	0xbc074d6b	-0.008258204
139	0xbc3ad52a	-0.011403361
140	0xbc14a527	-0.0090725785
141	0xbc95ee32	-0.018302057
142	0xbc427e6b	-0.011870961
143	0xbb87c897	-0.004143785
144	0xbcd417c7	-0.025890244
145	0xbd0eb780	-0.034842968
146	0xbca9046f	-0.020631997
147	0xbcb20f23	-0.021735733
148	0xbcd5ba68	-0.026089862
149	0x3a8b8504	0.00106445
150	0x3cd10209	0.025513666
151	0x3d14962e	0.036276035
152	0x3c33e613	0.010980147
153	0xbbb0aeaa	-0.0053919153
154	0x3bbb1ce4	0.005710231
155	0x3bc52c2e	0.0060172295
156	0xbb92f658	-0.004484933
157	0xbb89ed4f	-0.0042091976
158	0x3c703d6e	0.0146630835
159	0x3c239a6f	0.00998555
160	0x3b43d9fd	0.002988457
161	0xbb5de867	-0.0033860446
162	0xbc5fe6a3	-0.013665828
163	0xbce22667	-0.027606202
164	0xbd21097d	-0.03931569
165	0x3c549691	0.012975351
166	0x3c098b91	0.008395092
167	0x3cb48be3	0.02203936
168	0x3cf7a989	0.030232208
169	0x3ce3a784	0.027789839
170	0x3c77d773	0.015127051
171	0x3c38ef35	0.0112875
172	0xbaa593dc	-0.0012632567
173	0xbc7c0a5b	-0.015383328
174	0xbca232ce	-0.019799616
175	0xbbfbadc9	-0.007680629
176	0x3aaefbfb	0.0013350243
177	0xbcc95c64	-0.024580188
178	0xbc49f289	-0.012325891
179	0xbb286c4f	-0.0025699323
180	0x3d1f8664	0.038946524
181	0x3d0730dd	0.033005584
182	0x3d0ca433	0.03433628
183	0x3cfb424a	0.030671258
184	0x3d515f4b	0.05111627
185	0x3d4afa7a	0.04955528
186	0x3d0f5fd1	0.035003487
187	0x3ce71765	0.028209398
188	0x3c0ef3ab	0.008725087
189	0x3c5a6caf	0.013331576
190	0x3bbbbac5	0.005729052
191	0xbb06cebb	-0.0020569998
192	0xbc82ffb2	-0.015991066
193	0x3ab00d05	0.0013431614
194	0xbb55d20b	-0.0032626416
195	0x3d4ea9b7	0.05045482
196	0x3d172ee1	0.03690994
197	0x3d40d3b1	0.047076885
198	0x3d460913	0.048348498
199	0x3d563259	0.05229411
200	0x3d5b0bed	0.05347817
201	0x3cf70a11	0.030156167
202	0x3c7075ff	0.01467657
203	0x3af870a0	0.0018954463
204	0x3c10c331	0.0088356
205	0xbbbd93c2	-0.0057854364
206	0xbc901bff	-0.017591475
207	0xbd05a04d	-0.032623578
208	0xbc36633e	-0.01113206
209	0xbca56859	-0.020191358
210	0xbcbe6586	-0.02324177
211	0xbc4cced1	-0.012500481
212	0xbc6372b2	-0.013882326
213	0xbc3e9183	-0.011631372
214	0xbc9a5b47	-0.018842353
215	0xbcccee4d	-0.025015974
216	0xbc932528	-0.017962053
217	0xbccdb6b9	-0.025111543
218	0xbc978ecc	-0.018500708
219	0xbce4d41f	-0.027933178
220	0xbce110f8	-0.027473912
221	0xbcef5418	-0.029214904
222	0xbc714dee	-0.014728053
223	0xbaa8d0c1	-0.0012879596
224	0xba75123c	-0.00093487254
225	0x3ca40dcd	0.020026112
226	0x3c44fbac	0.012022894
227	0x3c93db49	0.0180489
228	0x3ce220ab	0.027603468
229	0x3d0204be	0.031742804
230	0x3ca1e4ee	0.019762482
231	0x3cc67185	0.024224052
232	0x3d0fb01c	0.03508006
233	0x3cd14341	0.025544764
234	0x3d3adc8a	0.04562048
235	0x3d3bf85e	0.04589116
236	0x3d1959ff	0.037439343
237	0x3d0bfcdb	0.03417669
238	0x3d212739	0.039344046
239	0x3d4dffa2	0.05029262
240	0xbb992917	-0.0046740877
241	0xbba2bb51	-0.0049661775
242	0xba882246	-0.0010386191
243	0xbc159765	-0.009130334
244	0xbc6a8b05	-0.014315371
245	0xbce0adf2	-0.027426694
246	0xbd014687	-0.0315614
247	0xbd1680b7	-0.036743846
248	0xbd001d70	-0.031278074
249	0xbcff6ca6	-0.031179737
250	0xbcdeb91a	-0.027187873
251	0xbc755bea	-0.014975527
252	0xbc5c15fd	-0.013432977
253	0xbb764ca8	-0.0037582312
254	0xbbf308bc	-0.0074168127
255	0xbc5bc3eb	-0.01341341

batchnorm3.weight f4 [32]
0	0x3f1b0a44	0.6056254
1	0x3f237bba	0.63860667
2	0x3f36c399	0.7139221
3	0x3f1e3c8a	0.61811125
4	0x3f18724c	0.59549403
5	0x3f143631	0.5789519
6	0x3f296d0e	0.6618203
7	0x3f2bf307	0.67167705
8	0x3f22d104	0.6360018
9	0x3f1fc909	0.6241613
10	0x3f349849	0.7054487
11	0x3f29fbf1	0.6640006
12	0x3f2eef44	0.6833384
13	0x3f11ff51	0.57030207
14	0x3f2b32aa	0.6687418
15	0x3f34478b	0.70421666
16	0x3f2af207	0.66775554
17	0x3f17ded8	0.5932441
18	0x3f33a333	0.701709
19	0x3f3c5768	0.7357087
20	0x3f327f6c	0.6972568
21	0x3f21b96f	0.63173574
22	0x3f155844	0.5833781
23	0x3f2de435	0.6792634
24	0x3f60d776	0.8782877
25	0x3f1ba40b	0.60797185
26	0x3f12967a	0.5726086
27	0x3f2bf16a	0.67165244
28	0x3f1fb3e1	0.6238385
29	0x3f33579d	0.7005556
30	0x3f309a96	0.6898588
31	0x3f26a057	0.6508841

batchnorm3.bias f4 [32]
0	0xbd2babdc	-0.041911945
1	0xbc16a297	-0.009194038
2	0xbe34f82c	-0.17672795
3	0xbac7ba61	-0.001523804
4	0x3c7642d9	0.015030586
5	0xbd38aa0e	-0.04508405
6	0xbc092296	-0.008370062
7	0xbc2da552	-0.010598497
8	0xbe68c820	-0.22732592
9	0xbd0461d4	-0.03231986
10	0xbc52df14	-0.012870569
11	0xbd7875bc	-0.060659155
12	0xbd44db59	-0.04806075
13	0xbd6987a4	-0.057014123
14	0xbc38c9e8	-0.011278607
15	0xbd7ef74d	-0.062247563
16	0xbd0b129a	-0.033953287
17	0x3a2d55fd	0.00066122395
18	0xbd59c191	-0.053163115
19	0xbd084525	-0.033269066
20	0xbc0ad7ae	-0.008474274
21	0xbd3c197c	-0.04592274
22	0x3baa8163	0.0052034124
23	0xbdb86938	-0.09004444
24	0xbce38ee8	-0.027778104
25	0xbd8a1011	-0.06741346
26	0x3caa27b4	0.020770885
27	0xbd832a73	-0.06404581
28	0xbbeb7a4a	-0.007186209
29	0xbe432e93	-0.19060735
30	0xbe3c3c9b	-0.18382494
31	0xbd7c7d7f	-0.06164312

batchnorm3.running_mean f4 [32]
0	0xbe0e3ec2	-0.13891128
1	0xbdf28cd2	-0.118432656
2	0xbd6d16d2	-0.05788309
3	0xbe09d5dd	-0.13460489
4	0x3da24ed9	0.07925195
5	0xbd861ace	-0.06548081
6	0xbdb7a312	-0.0896665
7	0xbd8d4ab0	-0.06899011
8	0x3ded0801	0.11573792
9	0xbdc38a75	-0.09547893
10	0xbd032044	-0.032013193
11	0xbbae4fdc	-0.0053195786
12	0xbdaee763	-0.08540227
13	0xbd61abe7	-0.05509558
14	0xbd246b68	-0.040141493
15	0xbd6fc25e	-0.058534972
16	0xbd896268	-0.06708223
17	0xbd56fd2f	-0.05248755
18	0x3c88ea65	0.01671333
19	0xbe1b4f04	-0.15166861
20	0xbb80393e	-0.003913074
21	0xbdbeb18e	-0.093112096
22	0xbddef3dc	-0.10886356
23	0xbda56ba6	-0.08077173
24	0x3dc33b3a	0.09532781
25	0xbd0fb9f3	-0.035089444
26	0xbd338b5a	-0.043834068
27	0xbce97d9d	-0.02850228
28	0x39dcc5de	0.00042109092
29	0xbdb5117b	-0.08841225
30	0xbd9c9084	-0.07644752
31	0xbd78ede3	-0.06077374

batchnorm3.running_var f4 [32]
0	0x3d19a837	0.037513938
1	0x3d540afb	0.051768284
2	0x3d14cba4	0.03632702
3	0x3d361975	0.04445787
4	0x3cf2f325	0.029656956
5	0x3cc0e97e	0.023548838
6	0x3d23c67c	0.03998421
7	0x3cf2ee72	0.029654715
8	0x3d1e31cb	0.038621705
9	0x3cf0c704	0.029391773
10	0x3d105094	0.035233095
11	0x3ce0532c	0.02738341
12	0x3ce2225f	0.02760428
13	0x3cbd8d69	0.023138719
14	0x3d0d69ce	0.03452473
15	0x3cfb61ae	0.030686226
16	0x3cd4109b	0.025886824
17	0x3cb31ab2	0.021863315
18	0x3d12e36f	0.03586143
19	0x3d3ef919	0.046624277
20	0x3d1b1d58	0.03786978
21	0x3d1316e8	0.035910517
22	0x3d21bc51	0.039486233
23	0x3d07ee5b	0.033186298
24	0x3d788ead	0.06068294
25	0x3cf7b61f	0.03023821
26	0x3cac0911	0.021000417
27	0x3cd533a8	0.026025608
28	0x3cdd2417	0.026994748
29	0x3d025569	0.031819735
30	0x3d0e7ce9	0.034787092
31	0x3d0bc97b	0.034127694

fc1.weight f4 [2, 736]
0	0x3e281d7a	0.16417494
1	0x3e2bd38d	0.16779919
2	0x3d09995e	0.033593528
3	0x3d0da7cf	0.034583863
4	0x3d289f2e	0.04116743
5	0x3cdfa861	0.027301969
6	0xbcc9ebd3	-0.024648583
7	0xbc01ad69	-0.007914879
8	0xbc4b3bdb	-0.012404407
9	0xbcca5a8b	-0.024701377
10	0xbdb58d54	-0.08864847
11	0xbde6aaf9	-0.11263079
12	0xbd0e1b9d	-0.034694303
13	0xbda5a8ac	-0.08088812
14	0xbdd619bc	-0.10454127
15	0xbd9fdb30	-0.078054786
16	0x3d0cc659	0.034368847
17	0x3c3ad208	0.011402614
18	0xbd2d9fa8	-0.04238859
19	0x3c1273e3	0.008938762
20	0xbd2b02d1	-0.041750733
21	0x3db81298	0.089879215
22	0xbdbc78f8	-0.092027605
23	0x3db6ea94	0.08931461
24	0x3e40a702	0.18813708
25	0x3d8959b1	0.067065604
26	0x3d1dcb25	0.03852381
27	0x3d8238b3	0.06358471
28	0xbd11c3b9	-0.035587046
29	0xbd67a8b8	-0.056557387
30	0xbd8a691e	-0.06758331
31	0xbd85ea3e	-0.06538819
32	0xbc9c8a06	-0.019108783
33	0xbdfc55c1	-0.12321044
34	0xbddf3901	-0.108995445
35	0xbd3615fa	-0.044454552
36	0x3d481df2	0.048856683
37	0xbcd05dff	-0.025435446
38	0xbd8e6586	-0.06952958
39	0xbe274cff	-0.16337965
40	0x3c793b9c	0.015211966
41	0xbca076b0	-0.019587845
42	0xbda1e8a0	-0.07905698
43	0xbd9e4470	-0.07727897
44	0xbd8654bd	-0.06559131
45	0xbc050011	-0.008117692
46	0xbe16a2a4	-0.1471048
47	0xbda762e6	-0.0817316
48	0xbcf7d206	-0.030251514
49	0x3c4ff242	0.012692036
50	0x3d4db7f5	0.050224263
51	0x3e02a89e	0.12759635
52	0x3db8c955	0.09022776
53	0x3dcb1bbb	0.099173985
54	0x3e26fee0	0.16308165
55	0x3e1166cd	0.14199372
56	0x3d83975b	0.06425353
57	0x3ddffdac	0.10937056
58	0x3db0046f	0.08594596
59	0x3d289b5c	0.041163787
60	0x3d6eb2c6	0.05827596
61	0x3dc5a40b	0.09650429
62	0x3db09d25	0.08623723
63	0x3d82ee2a	0.063930824
64	0x3d0455f5	0.032308538
65	0x3c9e4948	0.019322053
66	0x3c6fac6a	0.014628509
67	0xbd6b236e	-0.057406835
68	0x3d8832a3	0.06650283
69	0x3e188dbe	0.1489782
70	0x3e28cf8c	0.16485423
71	0x3decd733	0.115644835
72	0x3d3a8c81	0.04554415
73	0x3daada9b	0.08342477
74	0x3d20576d	0.039145876
75	0x3c9f85b8	0.019472942
76	0xbd5cd9bb	-0.05391858
77	0xbd2890fc	-0.041153893
78	0x3ce9db2e	0.028546896
79	0xbe152d57	-0.14568077
80	0xbdc32e55	-0.095303215
81	0xbd36f0dd	-0.0446633
82	0xbd189b22	-0.03725732
83	0xbe1a0b7e	-0.15043446
84	0xbcf10d5c	-0.029425316
85	0xbda3db0b	-0.080007635
86	0xbc3757bf	-0.011190354
87	0x3d1dc7f3	0.038520765
88	0x3d729421	0.059223298
89	0x3c092688	0.008371003
90	0xbceafe05	-0.02868558
91	0xbd4d4629	-0.050115738
92	0xbd6be0a3	-0.057587277
93	0xbdb3cb8b	-0.08779057
94	0xbd78f609	-0.060781512
95	0xbd47aca6	-0.048748635
96	0xbdceaad0	-0.10091174
97	0xbe07fe85	-0.13280685
98	0xbd55cd0f	-0.052197512
99	0xbd6eb27e	-0.058275692
100	0xbd9ce4de	-0.076608405
101	0xbe1fdf6b	-0.15612571
102	0xbdbb536c	-0.09146771
103	0xbe04b9b0	-0.12961459
104	0x3e0d165e	0.13778064
105	0x3c585989	0.013204941
106	0xbcd94d65	-0.026526162
107	0x3d0bb4c4	0.03410794
108	0x3cf15568	0.02945967
109	0x3d7e0ca4	0.062023774
110	0xbc87cf31	-0.016578289
111	0x3c7e2dfe	0.015513895
112	0xbb5aff85	-0.0033416462
113	0xba08a645	-0.00052127644
114	0x3d1231bf	0.035691973
115	0x3c814018	0.015777633
116	0xbc1fff90	-0.009765521
117	0xbdba4359	-0.09094877
118	0xbe171cba	-0.14757052
119	0xbdbc7659	-0.092022605
120	0xbd653259	-0.05595622
121	0xbd32af72	-0.04362435
122	0x3ba6fa23	0.0050957366
123	0x3d92e9b1	0.07173479
124	0xbd5ad439	-0.053425048
125	0x3e04f09a	0.12982407
126	0x3d685b88	0.056727916
127	0x3d103e41	0.03521562
128	0xbc8bf1da	-0.017083097
129	0x3d8782ce	0.06616746
130	0x3d14734c	0.03624277
131	0x3dccd3ef	0.100013606
132	0x3d803d5b	0.062617026
133	0x3d9a03a0	0.07520223
134	0xbe13815f	-0.1440482
135	0x3d6fd455	0.058552105
136	0xbcc5a6c6	-0.024127375
137	0x3b742ab0	0.003725689
138	0x3e2ded0c	0.16984957
139	0x3e49f393	0.19721822
140	0x3d8ac44d	0.06775723
141	0xbd02269a	-0.031775095
142	0xbdac7c39	-0.08422131
143	0x3d27c92c	0.040963337
144	0x3d2b742c	0.041858837
145	0xbbe49978	-0.0069763027
146	0x3d623e8e	0.055235438
147	0xbcd82e8c	-0.026389383
148	0x3dc4fc5f	0.096184485
149	0x3e0860dc	0.13318199
150	0x3ded124b	0.11575755
151	0xbd45fee1	-0.048338775
152	0x3db51f98	0.08843917
153	0x3d9fc6ed	0.07801614
154	0x3d5b317e	0.053513996
155	0xbc927103	-0.017876154
156	0xbd2969a8	-0.041360527
157	0x3c8a727a	0.01690029
158	0x3c40f280	0.0117765665
159	0xbc88dde3	-0.016707366
160	0x3cb2fbe4	0.021848626
161	0x3e0c353a	0.1369218
162	0x3e0b8a0d	0.13626881
163	0x3bbc6538	0.005749371
164	0xbb848374	-0.0040439907
165	0xbe31d16d	-0.17365046
166	0x3cde971f	0.02717167
167	0xbdd70c56	-0.105004
168	0xbc84752c	-0.016169153
169	0x3cebf2cd	0.0288023
170	0xbd8353ac	-0.064124435
171	0x3c517021	0.012783081
172	0x3d4d7bc8	0.050166875
173	0x3ca3934f	0.019967703
174	0x3e0bf96c	0.13669366
175	0xbe1eee33	-0.15520553
176	0xbd8a1856	-0.06742923
177	0x3dc3986c	0.095505565
178	0xbd19dfe4	-0.037567034
179	0x3ca848ed	0.020542586
180	0xbd12de1f	-0.035856362
181	0xbde0ac65	-0.10970382
182	0x3dc6ee4d	0.09713421
183	0x3c2b0463	0.010438058
184	0x3e23aff5	0.15985091
185	0x3e021887	0.12704669
186	0x3d321d61	0.04348505
187	0xbaff4472	-0.0019475354
188	0xba9de36d	-0.0012045928
189	0xbd7009e9	-0.0586032
190	0xbdbc7642	-0.092022434
191	0xbe0b40bd	-0.13598914
192	0xbd608285	-0.054811973
193	0xbcbdcd3a	-0.023169149
194	0xbd047893	-0.03234155
195	0xbd0fff6e	-0.035155706
196	0xbdc6f8c0	-0.09715414
197	0xbd06ca0d	-0.032907534
198	0x3cabbba7	0.020963503
199	0x3db4ebce	0.08834039
200	0x3dcdd20b	0.10049828
201	0x3d8ea481	0.069649704
202	0x3dc2e9dd	0.09517262
203	0x3cedf55b	0.029047659
204	0xbbd5fe4b	-0.006530558
205	0x3d0c54e5	0.03426065
206	0x3d122387	0.035678413
207	0x3e11f682	0.14254192
208	0x3df6a242	0.12042667
209	0x3d2ac2d9	0.041689727
210	0x3d9ec99d	0.077532984
211	0x3cd116c2	0.025523547
212	0x3d535cca	0.051602162
213	0x3c73298d	0.014841449
214	0xbd4ed8a2	-0.050499566
215	0x3c87ffa1	0.016601386
216	0xbd548204	-0.051881805
217	0xbcdd4583	-0.027010685
218	0xbd1da74a	-0.038489617
219	0x3dbf334a	0.093359545
220	0xbce82c81	-0.028341534
221	0xbe55e0ac	-0.20886487
222	0x3cca8c7f	0.024725197
223	0x3d73e487	0.059544113
224	0x3d418064	0.047241583
225	0x3d11858f	0.035527762
226	0x3d3f2a6b	0.046671312
227	0x3dcbe4f3	0.09955778
228	0x3dd92f21	0.10604692
229	0xbdbd837a	-0.09253593
230	0xbd79a53e	-0.060948603
231	0xbdbfcd94	-0.09365383
232	0xbdf03d2b	-0.11730417
233	0xbcc74ae8	-0.02432771
234	0xbde9bf71	-0.11413468
235	0xbdb4880c	-0.088150114
236	0xbd8329be	-0.06404446
237	0xbcc25143	-0.02372039
238	0x3bd6b3ca	0.0065521942
239	0xbe05987c	-0.1304645
240	0xbe2aa15c	-0.16663116
241	0xbdfe55c7	-0.124187045
242	0x3bdf4671	0.006813817
243	0xbd88d0d4	-0.06680456
244	0xbd276e19	-0.04087648
245	0xbd6d1a80	-0.0578866
246	0xbdd3e5df	-0.10346579
247	0x3c07cff7	0.008289329
248	0x3d2cce43	0.042188894
249	0xbda64e41	-0.081203945
250	0xbd4afc9c	-0.049557313
251	0x3cd90862	0.026493255
252	0x3d0e6a4e	0.03476935
253	0x3c817979	0.015804993
254	0x3ca04e89	0.019568698
255	0x3b6a29bd	0.0035730444

fc1.bias f4 [2]
0	0xbc106ecd	-0.008815479
1	0xb99823bf	-0.00029018332
